chat-0.2-beta.model (torch, 21703 bytes, 6 tensors)

l1.weight f4 [8, 317]
-0.0787199 0.98930675 0.33067253 -0.40999678 0.63986224 0.72991496 1.499401 0.4300201
-0.03667791 2.1948795 -1.6273924 -0.838259 -0.085675344 1.0703107 2.3706355 0.026068289
-0.2544806 -0.81051713 -0.070259444 -1.2371904 -1.3693595 0.5632575 0.86720264 -0.0049952567
-1.5954547 -0.9825974 -0.98793846 -0.89482653 0.6313246 0.63088447 0.9091681 -0.48277345
1.0194811 -0.054002833 -1.2103013 0.46758908 -0.23910955 0.725573 1.7988647 0.8009764
-0.3370788 -0.5703857 1.0864604 -0.43715942 0.7883686 -1.294817 1.2521174 0.4775398
1.0839097 0.8816417 1.3319801 -0.91570896 -0.69778436 1.6281239 0.4801646 -0.9252986
0.37340993 -0.010228389 0.4360524 0.5302072 -0.52633625 0.59411937 -0.3593644 -0.35456705
-0.03387384 -0.05348153 0.608383 -1.5298979 1.6450502 0.41278306 0.45144746 -0.72998935
-0.13023874 2.182969 0.70658505 1.1473668 1.0876637 -0.035333138 0.77546525 -1.0457916
-0.12227548 0.70278627 -0.2643596 1.9824259 -0.41701373 -0.37548977 -0.73783934 1.220248
-0.41143027 0.82451016 0.79356134 -0.2772515 0.6329306 0.5008438 1.0671431 0.37907004
0.19582798 -0.65479285 -0.1069842 -0.3438448 1.3167491 -0.33217883 -0.2798215 -0.011929593
0.86987555 -0.07890127 0.6689632 -0.7374368 -1.088683 -1.5125086 0.49291527 0.16894369
0.131885 -0.38450348 0.5979059 0.6054541 0.8172031 -0.12582222 2.045014 0.72029775
-0.12182723 0.1678842 2.1249182 -1.7183188 0.763035 -0.5366825 1.2631509 -0.4742286
1.2828984 1.2953395 0.7642207 1.2954186 -0.46517393 1.2594444 -0.3910078 -0.46757746
0.5059742 -1.2247812 0.23245667 0.10315588 -1.5900743 -0.08564657 -0.065160595 0.35812062
-0.6682873 1.0398777 1.3050692 -1.5605409 2.2665324 -0.1781982 0.09710167 -0.13186197
1.2583634 -0.73986953 0.45758912 -0.96704674 0.054768898 -1.2568282 -0.24334024 -1.464408
-1.1509697 -0.7275196 1.1831102 -0.26328772 -0.23826315 0.5740138 -0.27993962 1.0455594
0.014242084 0.06270116 -0.13310151 1.3083699 0.5852483 0.34073383 -1.1416968 -1.3338196
0.19181164 0.61674565 -0.21663651 -1.3781683 1.3773656 1.1101577 -0.2736108 1.4260197
-0.07395271 -0.8030247 0.2710313 0.13528226 0.7564477 -0.16768023 0.31397852 -0.16305038
-0.1674544 1.2820386 0.86617297 -0.8626448 0.9143469 -0.22549553 -0.46757418 -0.4196595
-0.3509005 0.6927118 -0.12059278 0.7163004 0.21414237 -0.08300822 0.63665336 0.51607734
0.002913104 0.85446346 -0.25581175 1.207519 -0.80799574 -0.47259763 -0.5264238 -0.070848785
-0.119833715 0.6166424 0.73719823 0.5013208 0.8061178 -0.48546836 0.7976363 0.4360041
1.6478373 -0.78092825 0.15649186 -0.04208938 2.0551765 0.621443 2.1084156 -0.428268
0.4926016 -0.7632588 -0.21433946 0.8392569 1.5518571 -0.30254886 0.47272468 -1.3425844
-0.7171169 1.1956308 -0.30127418 1.3747176 1.0107957 0.5368356 2.3560998 1.0908763
1.7508291 -0.34281412 -1.2936566 -0.71012646 -0.80088514 -0.76909584 0.6239896 -0.23397566
00000000: e637 a1bd 3543 7d3f e94d a93e 19eb d1be
00000010: 03ce 233f b5db 3a3f 5fec bf3f 982b dc3e
00000020: 933b 16bd e878 0c40 654e d0bf 2498 56bf
00000030: 8e76 afbd f1ff 883f 7eb8 1740 2a8d d53c
00000040: 484b 82be 0d7e 4fbf 2fe4 8fbd 415c 9ebf
00000050: 2c47 afbf a531 103f fe00 5e3f 40af a3bb
00000060: dc37 ccbf 818b 7bbf 89e9 7cbf 5a13 65bf
00000070: 7d9e 213f a581 213f 3ebf 683f 152e f7be
00000080: 5b7e 823f 1332 5dbd 27eb 9abf d667 ef3e
00000090: 22d9 74be 27bf 393f 3341 e63f ca0c 4d3f
000000a0: 9895 acbe cc04 12bf 2211 8b3f 5cd3 dfbe
000000b0: 86d2 493f 90bc a5bf 6245 a03f 1980 f43e
000000c0: 8ebd 8a3f 45b3 613f 537e aa3f e76b 6abf
000000d0: ffa1 32bf 5d66 d03f 22d8 f53e 5ee0 6cbf
000000e0: 962f bf3e f994 27bc 4342 df3e a9bb 073f
000000f0: f9bd 06bf 3518 183f 9cfe b7be d089 b5be
00000100: 4cbf 0abd 730f 5bbd fdbe 1b3f b2d3 c3bf
00000110: 0191 d23f 4d58 d33e 1f24 e73e 95e0 3abf
00000120: 4e5d 05be c4b5 0b40 c2e2 343f eadc 923f
00000130: 9038 8b3f 7bb9 10bd e484 463f 80dc 85bf
00000140: 916b fabd cde9 333f 245a 87be 22c0 fd3f
00000150: d382 d5be 3240 c0be 0ae3 3cbf 1631 9c3f
00000160: fda6 d2be 1913 533f d626 4b3f e9f3 8dbe
00000170: bd07 223f 4d37 003f 2598 883f 7815 c23e
00000180: 2187 483e 81a0 27bf 881a dbbd 6d0c b0be
00000190: 3c8b a83f 5813 aabe c344 8fbe 5774 43bc
000001a0: 2ab0 5e3f fd96 a1bd 2c41 2b3f a8c8 3cbf
000001b0: f759 8bbf e299 c1bf 645f fc3e 93ff 2c3e
000001c0: dd0c 073e a4dd c4be 5c10 193f 0aff 1a3f
000001d0: 3934 513f 8ad7 00be 82e1 0240 6f65 383f
000001e0: 8e80 f9bd d6e9 2b3e a9fe 0740 dff1 dbbf
000001f0: 4356 433f 0664 09bf eeae a13f 17ce f2be
00000200: 0436 a43f afcd a53f f8a3 433f 47d0 a53f
00000210: 472b eebe 7935 a13f 2d32 c8be 5066 efbe
00000220: 8687 013f a1c5 9cbf 1f09 6e3e 6443 d33d
00000230: 8e87 cbbf 7867 afbd eb72 85bd 965b b73e
00000240: e014 2bbf b61a 853f 820c a73f cebf c7bf
00000250: de0e 1140 9779 36be 3edd c63d d306 07be
00000260: 0d12 a13f 1768 3dbf 1f49 ea3e 6090 77bf
00000270: 5a55 603d bfdf a0bf 2f2e 79be b971 bbbf
00000280: fa52 93bf b93e 3abf 2870 973f a6cd 86be
00000290: 41fb 73be 92f2 123f 3f54 8fbe e4d4 853f
000002a0: a157 693c 7769 803d c34b 08be aa78 a73f
000002b0: d5d2 153f aa74 ae3e 1f23 92bf 9aba aabf
000002c0: 456a 443e 0be3 1d3f f6d5 5dbe d267 b0bf
000002d0: 844d b03f a619 8e3f b716 8cbe d087 b63f
000002e0: 8574 97bd 0793 4dbf 9dc4 8a3e 6f87 0a3e
000002f0: 8ea6 413f 5eb4 2bbe cbc1 a03e aef6 26be
00000300: 2b79 2bbe d719 a43f 83bd 5d3f 4ad6 5cbf
00000310: a312 6a3f 4de8 66be e265 efbe 9cdd d6be
00000320: 3ba9 b3be 8f55 313f 59f9 f6bd 775f 373f
00000330: 2348 5b3e 3700 aabd b7fb 223f a51d 043f
00000340: c6e9 3e3b 1ebe 5a3f c2f9 82be fc8f 9a3f
00000350: cfd8 4ebf 51f8 f1be b6c3 06bf 2b19 91bd
00000360: 616b f5bd 47dc 1d3f 06b9 3c3f 8f56 003f
00000370: bc5d 4e3f 4f8f f8be e431 4c3f ee3b df3e
00000380: 55ec d23f eaea 47bf 673f 203e ea65 2cbd
00000390: 0388 0340 e316 1f3f 48f0 0640 f145 dbbe
000003a0: 4736 fc3e ee64 43bf ce7b 5bbe 8ad9 563f
000003b0: 41a3 c63f afe7 9abe f808 f23e ced9 abbf
000003c0: f994 37bf 6e0a 993f 9c40 9abe bff6 af3f
000003d0: c161 813f 0f6e 093f 57ca 1640 d6a1 8b3f
000003e0: 2b1b e03f 5585 afbe 8a96 a5bf d9ca 35bf
000003f0: cf06 4dbf 77e3 44bf c8bd 1f3f 5197 6fbe

l1.bias f4 [8]
1.2989149 1.9019126 1.1323359 0.81453156 0.9702484 1.3111216 1.1675378 0.993747
00000000: d842 a63f df71 f33f 62f0 903f 2485 503f
00000010: 3362 783f d5d2 a73f e171 953f 3466 7e3f

l2.weight f4 [8, 8]
3.9148571 1.0989951 0.93462676 -1.1550304 0.30991766 2.714647 0.3476636 -1.6242954
1.0265336 1.0716738 0.06914137 3.0582843 -0.64457566 -0.31298995 -0.8299963 -0.7775604
-0.96043193 1.3308905 -0.43749854 0.38022774 3.7052898 2.0592835 -3.183837 1.8061721
0.31186688 1.4942294 2.7210548 -0.07375055 -2.6034522 -0.7922711 0.25899667 2.3184228
-1.6946985 2.251724 -1.757287 0.67602354 3.3456502 1.106012 1.9052501 -0.0705978
0.2651815 -0.37772775 2.5677984 4.3599863 2.7722208 -0.38840958 6.449202 1.6473101
-0.22410105 1.9832655 1.053323 -1.9753579 -0.7215199 -0.20338376 1.8851159 2.4070308
-0.18565142 -0.08611858 -0.2547989 -0.095315725 -0.0077013373 -0.2025881 0.1284962 0.040641457
00000000: 058d 7a40 dfab 8c3f b343 6f3f 09d8 93bf
00000010: 87ad 9e3e c7bc 2d40 f700 b23e e9e8 cfbf
00000020: 7465 833f 9b2c 893f fe99 8d3d eeba 4340
00000030: e902 25bf 3840 a0be a37a 54bf 330e 47bf
00000040: dede 75bf 9f5a aa3f cfff dfbe 36ad c23e
00000050: 7823 6d40 4dcb 0340 fcc3 4bc0 a630 e73f
00000060: 04ad 9f3e e942 bf3f c325 2e40 870a 97bd
00000070: f69e 26c0 47d2 4abf 369b 843e 0a61 1440
00000080: e1eb d8bf 3f1c 1040 c8ee e0bf e10f 2d3f
00000090: 221f 5640 cd91 8d3f 3cdf f33f 9495 90bd
000000a0: dfc5 873e 8865 c1be cf56 2440 0285 8b40
000000b0: 116c 3140 9fdd c6be dd5f ce40 0fdb d23f
000000c0: bf7a 65be a5db fd3f 4ad3 863f 87d8 fcbf
000000d0: 87b5 38bf d543 50be 7a4b f13f cb0c 1a40
000000e0: 681b 3ebe f05e b0bd 0075 82be e434 c3bd
000000f0: 805b fcbb 4173 4fbe 8294 033e a877 263d

l2.bias f4 [8]
1.3426312 -0.2798311 0.94737387 0.7021754 -0.28846213 -0.097330004 0.9803323 -0.14300257
00000000: 57db ab3f 0646 8fbe 1887 723f c4c1 333f
00000010: 4fb1 93be f454 c7bd 0ff7 7a3f 446f 12be

l3.weight f4 [91, 8]
-1.1225694 -1.0716668 0.04259605 -0.8075769 -1.2071135 -0.08518623 -0.67973644 -0.31547013
-1.7418817 -4.660618 0.504232 0.31526512 -3.3172762 -0.030418668 0.50623 -0.17626157
0.2554877 0.14668143 -1.1926594 -0.901008 -3.7830906 0.076853245 -2.095585 0.2735546
-0.522553 0.47129655 -3.1297083 0.08786066 -3.903718 0.05782547 -2.0366585 0.06299326
0.06358768 1.0098991 -0.068244465 -3.4940832 -3.0171824 -0.18194795 -1.4393706 0.17457947
-2.0305967 -1.7985859 -2.8748631 0.26503217 -2.1767142 -0.05462329 0.7756336 -0.024540812
-1.8300453 0.56569004 -1.6767113 0.3717819 -4.6196284 -0.08475881 -0.04355301 -0.062280595
-1.2178041 -0.56758165 -3.5740218 -0.05365063 -5.290674 0.42635527 -0.033543743 -0.18565826
-2.6687443 0.1860266 -2.9713013 0.1816223 -3.1927755 0.25766647 -1.942641 0.12578988
-0.8231659 -0.93812674 -2.1557927 -2.8423934 -1.1799542 0.3304492 -2.1422906 0.19341901
-2.671078 -0.073290825 -3.697322 0.26379502 -3.0653777 0.05208835 0.16438971 -0.01208961
-0.48706248 0.31542256 -2.3779697 -2.363539 -2.3977056 0.1862071 -1.8434304 0.340301
-0.8353275 -5.18169 -0.21823828 -1.2973182 0.09845331 -0.47283792 0.40187195 0.2914153
-0.8016525 -0.10081049 -0.0273612 -4.8533173 0.05436257 -0.70623994 -0.5059988 0.026825786
0.28825217 -1.2659076 0.47112712 -0.22186048 -0.73101634 -2.0668213 0.7575439 -0.23189344
-0.027870018 0.4816328 0.084110595 -1.6526234 -0.45838732 -1.0574688 -1.4329745 0.06742555
1.4942521 0.07979457 0.63211256 -3.198335 -1.0139098 -3.1759095 -2.1260567 0.16026059
0.3592438 -3.9891994 0.17392413 0.53199214 -3.608751 -0.8187966 0.6902426 0.32467237
0.28702372 -0.1612202 0.16938886 -1.6146489 0.16334976 -1.8980275 -0.13851655 0.1761274
0.6993887 -0.36208436 -0.4766018 -4.4002013 -0.081043564 -1.176389 0.027356561 0.32619748
-0.07910614 -1.1636789 0.7633398 -0.8101535 -5.0214744 0.064537175 -1.2202078 0.3471283
-0.16150531 -2.3658311 -1.1904229 -0.6153284 -3.2367816 0.5120481 -0.8712574 -0.024901748
0.16350041 -2.1502607 0.0043109967 -5.7914205 -0.93097174 0.013735518 -1.3555365 0.2724972
-2.1910934 0.0672112 -1.4777 -1.5385981 -1.92721 0.29272842 -2.132299 -0.28942022
1.0544362 -3.2813356 0.8629702 -1.5604377 -3.1767905 -0.8567927 -0.51244134 0.018057853
-0.16924404 -0.06858882 -0.9567598 -1.9301659 -0.5447988 -0.5633085 -0.52727205 -0.22425592
-1.2248389 -3.8624592 0.34631395 -3.1314323 0.3827852 -0.16664028 -2.246553 0.14223498
-3.1467183 -0.67210424 0.025817782 -3.6600718 -0.5752983 0.17357051 -2.918697 0.082172096
-2.2980168 0.2587718 -0.42253482 -1.1873362 -0.84916466 -0.26689628 -1.2494038 0.2651433
-2.9094212 -3.969265 -0.6027101 -0.36338955 -1.4841876 0.20346661 0.34828883 -0.07379907
-0.49638548 -1.7971928 0.09452025 -2.9677765 0.10064401 -0.25290298 -3.598077 0.12145382
-0.7286872 0.20846704 0.30248138 -3.4455438 -0.034520555 -0.6736373 -4.323059 0.117051125
00000000: 5bb0 8fbf 612c 89bf 3279 2e3d 5cbd 4ebf
00000010: b282 9abf 1e76 aebd 3503 2ebf 4d85 a1be
00000020: fbf5 debf c823 95c0 5915 013f 6e6a a13e
00000030: 414e 54c0 9230 f9bc 4a98 013f ea7d 34be
00000040: 49cf 823e a833 163e 10a9 98bf 76a8 66bf
00000050: 281e 72c0 3c65 9d3d 111e 06c0 590f 8c3e
00000060: 09c6 05bf c84d f13e 244d 48c0 4af0 b33d
00000070: 84d6 79c0 66da 6c3d 9d58 02c0 9c02 813d
00000080: 423a 823d 6044 813f c1c3 8bbd 0f9f 5fc0
00000090: 8419 41c0 9050 3abe 4c3d b8bf f6c4 323e
000000a0: 4cf5 01c0 1038 e6bf c2fd 37c0 4cb2 873e
000000b0: 494f 0bc0 acbc 5fbd ec8f 463f d009 c9bc
000000c0: ed3e eabf 10d1 103f 7a9e d6bf 325a be3e
000000d0: ffd3 93c0 0796 adbd a464 32bd f019 7fbd
000000e0: 01e1 9bbf 084d 11bf c6bc 64c0 c3c0 5bbd
000000f0: 344d a9c0 3d4b da3e 2a65 09bd 331d 3ebe
00000100: b5cc 2ac0 c27d 3e3e cd29 3ec0 32fb 393e
00000110: 6f56 4cc0 dcec 833e 76a8 f8bf 10cf 003e
00000120: 00bb 52bf 1329 70bf 82f8 09c0 c6e9 35c0
00000130: bd08 97bf a330 a93e 4a1b 09c0 a20f 463e
00000140: f1f2 2ac0 8019 96bd eca0 6cc0 2410 873e
00000150: 262f 44c0 985a 553d c755 283e 8013 46bc
00000160: 4160 f9be 117f a13e a830 18c0 3944 17c0
00000170: 0274 19c0 13ad 3e3e 87f5 ebbf ef3b ae3e
00000180: 06d8 55bf 68d0 a5c0 db79 5fbe 860e a6bf
00000190: e4a1 c93d d017 f2be 29c2 cd3e 6334 953e
000001a0: 1939 4dbf bb75 cebd 9824 e0bc 604e 9bc0
000001b0: 49ab 5e3d 24cc 34bf 2389 01bf c0c1 db3c
000001c0: ca95 933e 4309 a2bf 9337 f13e 652f 63be
000001d0: e323 3bbf cd46 04c0 66ee 413f 7975 6dbe
000001e0: aa4f e4bc 9398 f63e 2d42 ac3d 2a89 d3bf
000001f0: beb1 eabe 235b 87bf b56b b7bf 6816 8a3d
00000200: a743 bf3f 566b a33d 21d2 213f 85b1 4cc0
00000210: ccc7 81bf 1a42 4bc0 5011 08c0 5a1b 243e
00000220: ceee b73e 0b4f 7fc0 2b19 323e a330 083f
00000230: c7f5 66c0 a79c 51bf bdb3 303f 753b a63e
00000240: c6f4 923e e816 25be 4674 2d3e d1ac cebf
00000250: 2945 273e 91f2 f2bf 48d7 0dbe be5a 343e
00000260: 230b 333f 1f63 b9be 2705 f4be 73ce 8cc0
00000270: 2bfa a5bd ea93 96bf de1a e03c 5b03 a73e
00000280: 6602 a2bd 6ef3 94bf 3d6a 433f 3866 4fbf
00000290: ebaf a0c0 112c 843d c52f 9cbf cdba b13e
000002a0: a661 25be c769 17c0 c75f 98bf 2986 1dbf
000002b0: 6e27 4fc0 9615 033f ba0a 5fbf c0fe cbbc
000002c0: a76c 273e df9d 09c0 4343 8d3b 5153 b9c0
000002d0: 2a54 6ebf f00a 613c 3882 adbf c184 8b3e
000002e0: e03a 0cc0 07a6 893d 4625 bdbf c8f0 c4bf
000002f0: d1ae f6bf 80e0 953e 9677 08c0 e32e 94be
00000300: c4f7 863f 6701 52c0 9deb 5c3f 6cbc c7bf
00000310: 8950 4bc0 c456 5bbf 5b2f 03bf 10ee 933c
00000320: 4f4e 2dbe 4c78 8cbd 36ee 74bf ad0f f7bf
00000330: ef77 0bbf fc34 10bf 4dfb 06bf 58a3 65be
00000340: 85c7 9cbf 8832 77c0 1050 b13e 6369 48c0
00000350: 6cfc c33e c0a3 2abe 86c7 0fc0 0ca6 113e
00000360: d563 49c0 060f 2cbf d07f d33c 9e3e 6ac0
00000370: c046 13bf 78bc 313e efcb 3ac0 d849 a83d
00000380: b512 13c0 bd7d 843e 7c56 d8be a2fa 97bf
00000390: db62 59bf a1a6 88be 77ec 9fbf ddc0 873e
000003a0: f533 3ac0 7008 7ec0 364b 1abf 320e babe
000003b0: dcf9 bdbf 8d59 503e ea52 b23e f823 97bd
000003c0: 3d26 febe 6a0a e6bf d593 c13d 0df0 3dc0
000003d0: 721e ce3d 807c 81be e546 66c0 c8bc f83d
000003e0: 3f8b 3abf 6278 553e d7de 9a3e ca83 5cc0
000003f0: 6d65 0dbd 7e73 2cbf 8056 8ac0 80b8 ef3d

l3.bias f4 [91]
-0.49413824 0.26174062 -0.20111969 -0.33116186 0.26594415 -0.35918233 0.051971596 0.11086581
-0.05964441 -0.10687739 -0.6320984 0.035866678 0.24291053 -0.1321702 0.5724111 -0.52735394
0.24054463 -0.12605542 -1.0712578 0.78762966 0.668591 0.14584325 0.5331466 0.3511719
0.2808898 -0.8809499 0.14862266 0.07352238 -0.5161784 0.14899006 -0.48463473 -0.23193942
-0.20015125 -0.76955897 -0.2856221 -0.14793073 -0.40129998 -0.0019203185 -0.094808444 -0.17336193
0.25188953 -0.108827166 -0.5395944 -0.65112513 -0.84589463 -0.25923195 -0.08690817 -0.11640921
0.22297615 -0.5364521 0.059655175 0.1613108 -0.110851124 0.593895 0.23294453 -0.47750035
-0.5409074 -0.43182442 -0.9340143 0.285306 -0.5539527 -1.7587034 -0.5757336 0.0842308
-0.028774131 0.37642372 0.23954067 -0.3572236 0.14266384 -0.40147796 1.3047581 0.52885234
-0.27654734 0.28532568 -0.17979136 -0.17627013 -0.28243575 0.26449198 -0.71218926 0.07281762
0.16975419 -0.26068702 0.43785214 -0.12796152 -0.6753808 -0.46853298 0.22333491 0.15128328
-1.0634676 -1.0552803 -0.4273791
00000000: b0ff fcbe de02 863e 52f2 4dbe 0c8e a9be
00000010: d529 883e bfe6 b7be 2be0 543d 9d0d e33d
00000020: b24d 74bd 88e2 dabd 33d1 21bf f0e8 123d
00000030: 8abd 783e a057 07be 8989 123f ab00 07bf
00000040: 5551 763e ac14 01be fa1e 89bf 19a2 493f
00000050: c828 2b3f ef57 153e 4c7c 083f cecc b33e
00000060: cad0 8f3e ef85 61bf 8a30 183e e792 963d
00000070: 4524 04bf da90 183e 0b22 f8be 8781 6dbe
00000080: 73f4 4cbe d101 45bf 0f3d 92be 277b 17be
00000090: 3177 cdbe 32b3 fbba ee2a c2bd ca85 31be
000000a0: aaf7 803e c7e0 debd dc22 0abf 23b0 26bf
000000b0: 8d8c 58bf 0dba 84be e9fc b1bd f467 eebd
000000c0: dc53 643e ed54 09bf fc58 743d a92e 253e
000000d0: ea05 e3bd 8109 183f 0389 6e3e ed7a f4be
000000e0: e878 0abf 1718 ddbe 901b 6fbf a113 923e
000000f0: d8cf 0dbf 311d e1bf 4763 13bf 3381 ac3d
00000100: bab7 ebbc 9cba c03e 264a 753e 03e6 b6be
00000110: 7816 123e 858e cdbe 5002 a73f de62 073f
00000120: 9d97 8dbe 3516 923e 3a1b 38be 2880 34be
00000130: 6b9b 90be 7e6b 873e 0952 36bf 6821 953d
00000140: 0bd4 2d3e c578 85be 282e e03e 5808 03be
00000150: c2e5 2cbf 8ee3 efbe e8b1 643e 01ea 1a3e
00000160: b51f 88bf 6d13 87bf 6fd1 dabe
